phase_2/models/curated_mlp_classifier.pth (torch, 149406 bytes, 6 tensors)

net.0.weight f4 [256, 10]
00000000: cacd babb 86ed d2bb 6174 93bb 000c 1dba
00000010: 9dd0 7abb a560 86bb e55a 24bb c971 4cba
00000020: 49bf f4ba c11c a138 4eea c33b d839 9c3b
00000030: 00b6 b53b 5b5b 8438 4712 9b3b 1bcb ef3b
00000040: e3cb 463b 85c5 cc39 dbfa ab39 af07 2bb9
00000050: 6695 e73b c9bf b63b fa10 ae3b 2bdd dbb7
00000060: f66a 403b 207a b73b 5893 3c3b 9282 d83a
00000070: 74bc 2139 67f7 0dba e59b ff3b 0ac1 ce3b
00000080: 15c2 ae3b 424e 743a c7ee 673b a485 e13b
00000090: 4443 6f3b f0b1 f538 460e 843b 3439 96b9
000000a0: e0ce 15bc e2fa 17bc 3b1b aabb ccef f6ba
000000b0: 3320 a0bb e225 c4bb 29a3 8cbb df4a 66ba
000000c0: fd12 6dbb f5dc abb9 fcb6 c9bb 8b0b f5bb
000000d0: 10c8 62bb 6b52 80ba 8a3f 6bbb 9750 b1bb
000000e0: 8d12 a0bb 150f 21bb 3dad 82ba 6c01 0db9
000000f0: eb5f 273c 5a61 cc3b e5d7 d63b 638b e13a
00000100: b5be b93b 78c8 a43b c8fd 933b 1459 f73a
00000110: 6f40 bb3b 45aa a638 c811 debb 266c acbb
00000120: 9b37 98bb 64c7 90ba 500a 76bb 08ba c8bb
00000130: f617 4cbb da02 acba ef9e 84bb 07b7 d638
00000140: 4dc5 cc3b 340d 6a3b ee3b a03b 15fb 4d39
00000150: 036d ba3a fea5 883b ebd6 8b3b 8edc 003b
00000160: c557 443b d5b0 5ab8 2291 0c3c 5f86 e33b
00000170: 56ba 973b da15 903a 65a5 6e3b be86 e93b
00000180: 3b23 433b 3c92 993a d2d2 6cb7 beaf 63b9
00000190: 8e1d 09bc 6611 1cbc e57c b8bb 4458 8aba
000001a0: d434 6cbb 89ef bcbb 8b39 b9bb 8fce 98b9
000001b0: 0638 c6bb 2102 1239 5856 02bc eb86 e4bb
000001c0: ea53 c8bb 4062 07bb c1ac cebb 5c04 d1bb
000001d0: ec82 bcbb e0bc 40bb c7e2 94bb 87f1 8339
000001e0: 3345 dcbb 9dff 11bc 2f06 a2bb 78c8 86b9
000001f0: 54d7 7abb 5268 e1bb c895 afbb 3408 b9ba
00000200: 9a67 59bb 0fd9 c4b8 f4ef 0e3c 86a8 073c
00000210: 117f b63b 30ab 813a 3596 6a3b 7702 063c
00000220: 6c36 b63b 8fdf e23a 3f68 993a a280 3639
00000230: 465e 04bc a764 b0bb 1c4a afbb 3262 fdba
00000240: 27c2 bbbb b259 a9bb bd90 a6bb ef69 c3ba
00000250: 81cb 9eba 1c70 0d3a 945c 1b3c cab2 063c
00000260: bfa4 033c a768 a33a 3412 973b 53ca e53b
00000270: ee3a ca3b c3ac ee3a cca2 883b 9751 9f39
00000280: 9983 fdbb a54d e4bb 99b1 a4bb 7299 3aba
00000290: 1992 b1bb f17e bfbb 84fc 8fbb 6bb9 aeba
000002a0: eb2d 91bb e681 f039 2328 01bc 9d22 ccbb
000002b0: 7bee a0bb 620e 03bb 300c a9bb 3f98 c2bb
000002c0: 3e6b 75bb b4f5 c6ba dd1f b3bb 0727 f939
000002d0: 5b3d ddbb 443a 35bc 11b8 afbb 08a1 89ba
000002e0: a0fd bcbb b4a7 0abc 1d2d ffbb 9d0c 0dbb
000002f0: e449 9ebb e482 3e3a 48f7 c5bb 912f b4bb
00000300: 03ef b0bb 68a0 cfba a4a1 99bb c1c3 e6bb
00000310: 66f3 8cbb c9f1 08bb 77f0 a6ba ae8c 9039
00000320: e93a 1d3c f726 023c cf25 a63b 5e30 963a
00000330: 1da1 583b a92e e43b 3324 2f3b d139 bd3a
00000340: f9d7 3c3b 0137 4839 7402 29bc 430b 53bc
00000350: 2f91 dbbb 0052 1cbb 7c02 03bc 65fb 0dbc
00000360: 799a adbb 2eb7 c5ba 4de4 c3bb f5e2 4a39
00000370: e4d4 af3b 1e48 c73b 6f7c 213b 9c74 da3a
00000380: ff1a 6c3b 48e7 903b 818d 5c3b 0635 273b
00000390: e6c8 463a 91de 0cb8 bf13 40bc b74f f7bb
000003a0: f99c e1bb 9104 a1ba 64d7 edbb 12e9 17bc
000003b0: ef09 cdbb e33e e1ba 0598 c2bb 998f 203a
000003c0: 12e2 00bc b898 0abc 2303 cdbb 6edb ceba
000003d0: 36a6 65bb 7f1c ebbb 50c9 81bb e9d9 c6ba
000003e0: 6cec 21bb f968 0637 6dd4 efbb 818f 02bc
000003f0: 9d88 c2bb 1634 20b9 a074 63bb c45a f6bb
-0.0057008015 -0.0064370064 -0.0044999574 -0.0005990863 -0.0038271316 -0.0041008764 -0.0025078591 -0.0007798938
-0.001867273 7.682434e-05 0.005978859 0.0047676377 0.0055453777 6.311267e-05 0.0047324034 0.007317913
0.0030333928 0.00039057076 0.00032802564 -0.00016310693 0.00706737 0.005577062 0.0053120824 -2.6209824e-05
0.0029360629 0.005599275 0.0028774347 0.0016518405 0.00015424361 -0.0005415589 0.0078005665 0.006309633
0.005333195 0.00093195227 0.0035390125 0.0068823863 0.00365086 0.00011715654 0.004030022 -0.0002865285
-0.009143561 -0.009276124 -0.0051912344 -0.0018839776 -0.004886651 -0.0059859613 -0.004291911 -0.00087849604
-0.0036174648 -0.00032780287 -0.0061558466 -0.0074781827 -0.003460411 -0.0009790187 -0.0035896027 -0.0054112184
-0.004885024 -0.002457564 -0.0009969842 -0.00013447338 0.01021574 0.006237191 0.0065564984 0.0017207678
0.005668486 0.0050287805 0.004516337 0.0018871152 0.005714468 7.947212e-05 -0.006777022 -0.0052619157
-0.0046453006 -0.0011045751 -0.0037542768 -0.0061256923 -0.0031142212 -0.0013123408 -0.0040472667 0.00010238407
0.006249106 0.0035713436 0.0048899567 0.00019643859 0.0014223162 0.0041701784 0.0042675636 0.001966271
0.0029959541 -5.2139938e-05 0.008579524 0.0069435085 0.0046303673 0.001099284 0.00364145 0.007126658
0.0029775638 0.0011716555 -1.4115782e-05 -0.00021713876 -0.008368863 -0.0095256325 -0.005630123 -0.001055487
-0.003604223 -0.0057658595 -0.0056526116 -0.00029145597 -0.006049159 0.00013924438 -0.007955156 -0.0069740913
-0.006113519 -0.0020657927 -0.006307215 -0.0063786935 -0.005752912 -0.0029409453 -0.0045436355 0.0002516622
-0.0067221164 -0.008911041 -0.004944585 -0.00025707833 -0.0038275318 -0.006878891 -0.0053584315 -0.0014116825
-0.0033173324 -9.3864386e-05 0.0087242015 0.008279925 0.0055693467 0.0009892937 0.0035795097 0.008179299
0.005560687 0.0017309057 0.0011704041 0.00017404792 -0.008079117 -0.0053830924 -0.0053494107 -0.0019331633
-0.005729932 -0.005168163 -0.005083172 -0.001490889 -0.0012115092 0.0005395429 0.009482522 0.008221338
0.008034884 0.0012467102 0.0046103243 0.0070126443 0.0061715757 0.0018209446 0.0041697975 0.00030387632
-0.007736635 -0.0069672638 -0.005026054 -0.0007118202 -0.0054190275 -0.00584399 -0.004394116 -0.0013330405
-0.0044305227 0.0004587315 -0.0078831045 -0.006229712 -0.0049112416 -0.0019997586 -0.0051589236 -0.0059385593
-0.0037447955 -0.0015179426 -0.005466445 0.0004752206 -0.006751699 -0.011061255 -0.0053625186 -0.0010500262
-0.005767539 -0.008462835 -0.0077873603 -0.002152241 -0.004830586 0.0007267429 -0.006041441 -0.0054988344
-0.005399586 -0.0015840651 -0.0046884585 -0.0070423787 -0.0043014763 -0.0020896068 -0.0012736459 0.00027570635
0.009596565 0.00794386 0.005070425 0.0011458506 0.0033055015 0.00696357 0.0026724457 0.0014436786
0.0028815253 0.00019093977 -0.010315526 -0.012881103 -0.006700657 -0.0023852587 -0.007996198 -0.008665894
-0.0052979556 -0.0015084499 -0.0059781433 0.0001934877 0.0053659547 0.006081595 0.0024640819 0.0016666832
0.0036026833 0.004422102 0.003365368 0.0025513782 0.0007583037 -3.3585882e-05 -0.011723458 -0.0075473445
-0.0068851677 -0.0012284686 -0.0072583426 -0.009271877 -0.0062572877 -0.0017184879 -0.0059385323 0.00061249133
-0.007866399 -0.008459263 -0.0062564774 -0.0015781948 -0.0035041696 -0.007175028 -0.003960766 -0.0015171143
-0.0024707569 8.011463e-06 -0.0073190243 -0.007968784 -0.0059366957 -0.00015278193 -0.0034706965 -0.0075181443

net.0.bias f4 [256]
00000000: f748 8dbd 0dc9 e63d 662e ab3d 2f5e d33d
00000010: 259c 07be 96af d7bd 5997 de3d adb9 c6bd
00000020: 3cdb bf3d 9181 e23d 70e6 c6bd 37a0 e6bd
00000030: 3072 c9bd 9db4 e23d 9041 d1bd 1ff6 e23d
00000040: 8ef5 d6bd 5c04 e3bd 7e36 02be 12ac d3bd
00000050: 9b0f e33d c004 0cbe 521d af3d f824 0ebe
00000060: 38f1 d8bd 7e4b ddbd f7a2 ef3d a7af 033e
00000070: 06c5 e13d ec52 db3d ee5f c03d 2460 da3d
00000080: 0993 b53d 6741 c73d e21d b9bd 5a24 debd
00000090: 721d ed3d 20d8 a13d 5a3c 0ebe 997f e33d
000000a0: 7730 08be 89ad ef3d afa3 b23d 049d 15be
000000b0: ecdc 03be 97e8 d83d 2dde 04be 0de5 7cbd
000000c0: d24c f33d 3522 9dbd 160e b93d 70ee e33d
000000d0: 02bc ccbd 4a49 c3bd 04c9 de3d 0030 f03d
000000e0: 413c debd c3be ec3d 3fb0 023e 5fc0 d2bd
000000f0: 887a cdbd 573a e5bd 934c a8bd 1690 0cbe
00000100: db9c df3d 703b ee3d 279d f6bd baac debd
00000110: 0765 ea3d dfdf fbbd 947d eabd 6c3b c63d
00000120: 326b b1bd 1e8d e23d e06d ef3d 9ba4 db3d
00000130: 4601 f33d c569 bcbd 268b 06be 05a2 d53d
00000140: 1272 b9bd 940e 06be 5e67 edbd 330d ce3d
00000150: 5d5a eebd d8d7 dd3d 195e d93d 66ee ee3d
00000160: 670c d23d e07b 11be baa9 b4bd 562c e03d
00000170: 5a5c eb3d 90c5 debd 53c7 de3d a1f7 f63d
00000180: 9141 dc3d fee2 00be e0a2 f93d 745e 12be
00000190: c71e 86bd 4660 07be 602b 06be d237 fd3d
000001a0: c610 cbbd 129b 01be 3377 eb3d 9c96 b3bd
000001b0: 9715 b3bd ccd2 133e ebc6 e73d 357b aebd
000001c0: 97d7 c03d b4fc bd3d 1a51 90bd 74e0 d83d
000001d0: 7e19 9fbd 5525 0c3e 6fb3 d9bd d508 9fbd
000001e0: 8275 073e f000 f73d 23a9 e23d 3c6e 05be
000001f0: 9c3c bdbd d5f1 e8bd 58cc c9bd 405e debd
00000200: 29ac debd e2a3 8bbd 4f25 00be 173d 083e
00000210: 73da be3d 4076 f73d 1cc9 073e 8d02 073e
00000220: 0e66 f0bd a1ff d03d c82e 0ebe ba7e 04be
00000230: 0ddf e13d 52fb f6bd c6eb bebd 9fa8 f53d
00000240: d980 afbd 1dc3 d1bd 40a0 d63d cb30 bcbd
00000250: 67d5 073e 0dd8 efbd 1e16 d6bd b698 d3bd
00000260: 6ea6 0bbe 9d7f f03d 3eba 13be ec84 bc3d
00000270: 0f94 cdbd ea7c d0bd 787f d83d e4df f9bd
00000280: 4999 033e 747f d63d 42df 00be 0577 c43d
00000290: 7495 f5bd 606f f5bd e27d c7bd d825 f2bd
000002a0: f7f3 bfbd 8150 e13d 82e9 dc3d 51ce b73d
000002b0: e4ae c33d a352 f53d 0abb a9bd 7e06 d6bd
000002c0: 91af 10be f02a e4bd 71d8 f1bd 8cbb c1bd
000002d0: ddb9 ddbd 976b cb3d 515b cf3d da48 c2bd
000002e0: cd7f c0bd 2890 f43d 4f9d 1b3e 3218 90bd
000002f0: 9f12 fc3d 465a b5bd f53c a43d 5299 ec3d
00000300: de4d 01be 57fc d73d aa08 ffbd 2a78 ab3d
00000310: 596a e53d a91a bb3d c6b9 08be b2b1 cfbd
00000320: 4723 08be 6d7c e4bd 6487 dbbd efdf d53d
00000330: 0358 b6bd 6135 fdbd 0b57 a7bd 48bf 003e
00000340: 1099 ad3d 11ea 08be f129 e2bd 037f e03d
00000350: 9425 d33d b95e bb3d 0bbb 09be 7818 f3bd
00000360: 4864 013e 2e28 a63d d2fb 07be 1f95 f1bd
00000370: f2c3 fb3d 3337 dbbd 1cc2 063e bbe2 e03d
00000380: de38 b73d d374 f23d bf43 d13d 4d9c 06be
00000390: f77a 0a3e f6a0 e5bd 0f68 b13d 80c9 e43d
000003a0: 347c edbd 796d 03be 2501 153e ec4d f03d
000003b0: 87ed e73d d49e 00be a647 ee3d 81af f2bd
000003c0: b187 f23d cf39 abbd a07b c03d 17ac edbd
000003d0: d3b8 f1bd e759 f1bd 59a6 f73d a1a2 d43d
000003e0: e8bb e43d 601c d1bd 1a2a 063e 75a9 053e
000003f0: 614d ea3d a777 003e 486d d2bd d341 09be
-0.068986826 0.11268816 0.08358459 0.103206985 -0.13243158 -0.10531537 0.10868711 -0.097033836
0.093679875 0.11059869 -0.09711921 -0.11261027 -0.09836233 0.110696055 -0.10217583 0.110821
-0.104960546 -0.11084816 -0.127161 -0.10335554 0.11086961 -0.13673687 0.08550514 -0.1388129
-0.10592884 -0.108054146 0.11701005 0.12859975 0.11023907 0.107091755 0.09393297 0.106628686
0.08865935 0.097292714 -0.09038903 -0.10846777 0.11577882 0.07902551 -0.1389021 0.11108322
-0.13299738 0.11703021 0.087226264 -0.14610678 -0.12877244 0.10591238 -0.12975378 -0.061741877
0.11879887 -0.0767254 0.0903589 0.11129463 -0.09996797 -0.09535463 0.108781844 0.11727905
-0.10851336 0.115598224 0.12762545 -0.10290598 -0.100331366 -0.11192768 -0.082177304 -0.1372684
0.1091859 0.116324306 -0.12041693 -0.10872789 0.11445051 -0.122985594 -0.114497334 0.096793026
-0.08663024 0.11062072 0.11690879 0.107247554 0.11865477 -0.091998614 -0.13139018 0.104312934
-0.0905496 -0.13091499 -0.11591981 0.10061111 -0.11638329 0.108321846 0.10613651 0.11666565
0.10256272 -0.14207411 -0.08821435 0.109459564 0.11492224 -0.10877526 0.10877862 0.1205895
0.10754693 -0.1258659 0.12189269 -0.14293844 -0.06548839 -0.13220319 -0.13102484 0.123641625
-0.09915309 -0.12656811 0.11497345 -0.08768961 -0.08744352 0.14435881 0.113172375 -0.085195936
0.094161205 0.09276715 -0.07046719 0.10589686 -0.07768534 0.13686116 -0.10629927 -0.077653565
0.1322842 0.12060726 0.110674165 -0.13030332 -0.09240076 -0.11374251 -0.098534286 -0.108578205
-0.10872681 -0.068183675 -0.12514232 0.13304554 0.0931901 0.12083101 0.13260311 0.13184567
-0.117382154 0.10205007 -0.13885033 -0.12938967 0.11028872 -0.12059654 -0.09322314 0.119950525
-0.085694976 -0.10242293 0.10479784 -0.09188994 0.13265 -0.1171113 -0.10453437 -0.10331862
-0.13637707 0.1174309 -0.14426515 0.0920504 -0.100380056 -0.101800755 0.10571188 -0.12200907
0.12851442 0.104735285 -0.12585166 0.09593014 -0.119913965 -0.11984134 -0.09740807 -0.11823624
-0.093727045 0.11001683 0.107867256 0.089748986 0.09554842 0.11978652 -0.08287628 -0.10450457
-0.14129473 -0.11141002 -0.11808861 -0.094596 -0.10826466 0.099326305 0.10124839 -0.094865516
-0.09399376 0.11941558 0.15196727 -0.07035865 0.12308239 -0.08855109 0.08019439 0.11552681
-0.1262736 0.10546177 -0.124528244 0.08372529 0.11201925 0.091359444 -0.13352117 -0.101413146
-0.13294707 -0.11156545 -0.10719183 0.104431026 -0.08903506 -0.12363697 -0.08170899 0.12572968
0.0847646 -0.13370539 -0.11043156 0.109617256 0.10309902 0.09148926 -0.13450257 -0.118699014
0.1263591 0.081131324 -0.13279656 -0.11796021 0.12293233 -0.10703888 0.13159984 0.109807454
0.089463934 0.11838689 0.10218 -0.13145562 0.1352347 -0.112123415 0.08662426 0.111712456
-0.115959555 -0.12834729 0.14551218 0.117336124 0.113246016 -0.12560588 0.116347596 -0.11849881
0.11842287 -0.083606355 0.093985796 -0.11605089 -0.118028305 -0.11784726 0.12092275 0.103825815
0.11168653 -0.1021049 0.13101998 0.13052924 0.1144054 0.12545644 -0.1027475 -0.13404016

net.3.weight f4 [128, 256]
00000000: 00f1 cf3b b7e3 15bc 7126 00bc b770 06bc
00000010: f30b 3b3c a1a1 143c 561d 25bc b791 1e3c
00000020: 9928 09bc 95e5 2cbc 4da9 1f3c 262b 273c
00000030: 5bf7 023c 9e7c 18bc be3e 283c a086 1abc
00000040: b179 253c 33c0 253c 0fd0 593c 21d4 183c
00000050: 94ef 34bc 6482 303c 8dbe f4bb 1f6c 463c
00000060: 6c93 393c b465 1d3c 3016 30bc c310 3bbc
00000070: 789a 31bc fbe4 27bc 1a32 fcbb 7942 2abc
00000080: 07ab 00bc d0b9 01bc 0b3f 003c 8c35 223c
00000090: 94d9 34bc 12cf 00bc 037b 593c b006 25bc
000000a0: 7316 303c 1d6d 34bc eab5 00bc c877 643c
000000b0: 822c 2a3c 9208 28bc ffb1 443c f87f c03b
000000c0: dd38 4bbc ecfc d53b 2fd6 f5bb 0f5c 2dbc
000000d0: 4c9f 103c 14a9 1a3c 64fa 30bc 47e0 37bc
000000e0: 83a2 203c f926 31bc 4a57 27bc 2618 123c
000000f0: 027a 003c f33b 423c a72f 0e3c 3536 373c
00000100: 1139 1cbc c240 3abc 9e22 353c d516 1d3c
00000110: 30d3 26bc d82c 2f3c a175 313c f346 17bc
00000120: 1bda 0c3c e51a 43bc 0d96 19bc a6c6 30bc
00000130: e228 31bc 6370 0a3c 3652 433c 36ed 12bc
00000140: 8e2d 0d3c ee09 443c 4264 323c 1451 23bc
00000150: 3ed2 353c 01f9 28bc 134c 15bc bdfd 39bc
00000160: 9304 27bc 072d 543c 9c5d 023c 6f3b 2abc
00000170: 0669 2bbc 3dc9 1f3c f23b 1bbc 8de4 36bc
00000180: 6f9a 1abc f8f9 3a3c ec87 33bc b183 5e3c
00000190: 831f c03b c91c 363c 83b5 523c 8a81 3cbc
000001a0: 7346 1d3c 27fc 2f3c 5860 27bc 1330 fa3b
000001b0: 76e7 073c 37ff 51bc abe8 2cbc c960 003c
000001c0: ede2 1abc 9dc1 16bc b201 eb3b 1598 16bc
000001d0: abca ce3b 3f6b 60bc f5a3 1e3c 23ea fa3b
000001e0: abf3 3dbc 0bb7 2fbc b182 13bc 8688 203c
000001f0: 5536 2e3c 7231 363c 4800 0e3c 4e43 133c
00000200: 3405 243c 1942 cd3b 9c7c 2f3c e990 52bc
00000210: 1413 01bc 0357 23bc d203 3dbc 1053 46bc
00000220: cb12 553c 8049 11bc ab31 473c 4bcb 273c
00000230: 7f16 30bc 665f 473c f260 093c 1187 47bc
00000240: bea8 043c 697b 2e3c abd7 31bc fccf 0f3c
00000250: 5b49 4bbc b38c 363c cbfb 093c abbe 123c
00000260: da64 2d3c 0c22 36bc f70d 7c3c ba8a 05bc
00000270: 75ed 0f3c a8a5 2b3c fc38 11bc 2c11 2d3c
00000280: b41d 4cbc ae44 1ebc 1a43 473c 2d6c 0cbc
00000290: ca49 333c a3f5 443c c2f4 093c 7c79 2f3c
000002a0: b2ab 113c d258 22bc fd86 24bc 7283 05bc
000002b0: aa3b 09bc 4d46 2bbc 9b01 fc3b 929f 1a3c
000002c0: 9178 663c 3c57 163c 513c 2e3c f86c 083c
000002d0: 109f 0d3c b53f 09bc 8d80 16bc cb0d 163c
000002e0: b38c 253c 8d0a 39bc 919a 7cbc 57a9 bf3b
000002f0: ce84 4dbc c01f 123c f099 e8bb eeaf 36bc
00000300: 5bd5 313c f5b8 0bbc ca89 2a3c f69d 07bc
00000310: d481 06bc 4638 1bbc ab21 2a3c 14e7 173c
00000320: 1223 4b3c 8f84 133c da88 313c 37c0 12bc
00000330: 5426 273c fda9 473c 9bc7 fc3b f5f1 1cbc
00000340: 3a18 eebb a332 433c be16 1e3c cfbe 11bc
00000350: 717d 1bbc dc46 10bc 562a 563c 69ac 253c
00000360: 2dd9 32bc c866 0bbc 4137 403c 0007 443c
00000370: 7aaa 2bbc 1437 293c 8f2c 41bc 5bb0 1dbc
00000380: 8d7b 16bc 29e9 2abc bd4d 27bc 9667 533c
00000390: 0eea 3bbc 29cf 243c 85e6 16bc 3e74 1abc
000003a0: 1795 323c a580 383c 2a39 6bbc 4811 36bc
000003b0: 70a6 23bc 868c 3b3c e30e 40bc 4289 2a3c
000003c0: 7aed 4cbc c9be 0b3c 30de 06bc 5650 343c
000003d0: 8b9e 333c 1393 443c 23f8 2fbc 58dc 11bc
000003e0: 6bb3 26bc 7cc1 173c 7ed2 2fbc 886e 4dbc
000003f0: 4a7d 1bbc ad91 3ebc 86b2 123c 8dbb 3b3c
0.006345868 -0.00914853 -0.007821665 -0.008205584 0.011416423 0.009071738 -0.010077795 0.009678296
-0.008371496 -0.0105527835 0.009744954 0.0102031585 0.007993544 -0.009307055 0.010268865 -0.009431511
0.010099814 0.010116625 0.013294234 0.009327919 -0.011043448 0.010773275 -0.0074690045 0.012110739
0.011326652 0.009606767 -0.010747477 -0.0114175705 -0.010840051 -0.010247464 -0.0076964023 -0.010391825
-0.007853276 -0.007917836 0.007827531 0.009900462 -0.011038203 -0.007861869 0.013273957 -0.010072395
0.01074754 -0.011012343 -0.007855872 0.013944574 0.010386588 -0.01025595 0.012005328 0.00587463
-0.012403694 0.006530395 -0.0075023393 -0.0105810305 0.008827042 0.009439725 -0.010801885 -0.0112229055
0.009804371 -0.010812514 -0.010213682 0.00891689 0.007841589 0.011855113 0.008678353 0.011182358
-0.00953509 -0.0113679785 0.011055617 0.009587963 -0.010182187 0.010691844 0.010831268 -0.009233224
0.008596922 -0.011908268 -0.009374154 -0.010789549 -0.01081297 0.008449647 0.011921456 -0.008967688
0.008616818 0.011965258 0.010888161 -0.009968061 0.011097489 -0.010313273 -0.009112376 -0.011352
-0.010193962 0.0129501885 0.0079568885 -0.010390147 -0.010462051 0.009752569 -0.009474741 -0.011162889
-0.009436234 0.011412136 -0.010957699 0.013581202 0.0058631315 0.011115261 0.012860659 -0.011505494
0.009599316 0.01074127 -0.010215841 0.0076351254 0.008294931 -0.012817196 -0.010553519 0.007835575
-0.009453517 -0.009201434 0.007171833 -0.009191533 0.006310781 -0.013697444 0.009682645 0.007657306
-0.0115937395 -0.010724793 -0.009003327 0.009798175 0.010633071 0.011120187 0.008667059 0.008988215
0.010011006 0.006263983 0.0107108615 -0.012851932 -0.007878084 -0.009969476 -0.011536555 -0.012104765
0.013004969 -0.008867621 0.012157838 0.01024134 -0.010747551 0.012168741 0.00838493 -0.012178198
0.008096872 0.01064954 -0.010854642 0.008777615 -0.012407626 0.011141944 0.0084218485 0.008956592
0.010583127 -0.011116516 0.015384189 -0.008150751 0.0087846415 0.010476507 -0.008863684 0.010563176
-0.012458254 -0.009659929 0.012161994 -0.008570713 0.010942886 0.012021455 0.008420171 0.0107101165
0.008891033 -0.009908872 -0.010041949 -0.008149015 -0.008376041 -0.010453773 0.007690621 0.009437459
0.014066831 0.009176072 0.010634498 0.008326761 0.0086438805 -0.008377005 -0.009185922 0.009158562
0.010104346 -0.011294019 -0.015417711 0.0058490443 -0.01254387 0.008918703 -0.007098429 -0.011150343
0.010854091 -0.008527984 0.010408828 -0.008277407 -0.008209664 -0.009473866 0.010384004 0.009271402
0.012398498 0.009003772 0.010835851 -0.00895696 0.010202009 0.012186524 0.0077142245 -0.009579171
-0.0072660716 0.011913928 0.009648977 -0.00889559 -0.009490357 -0.008805957 0.013071617 0.010111907
-0.010916037 -0.008508392 0.011731924 0.01196456 -0.0104776565 0.010328073 -0.011790409 -0.009624566
-0.00918473 -0.010431566 -0.010211405 0.012903115 -0.011469377 0.010059156 -0.009210234 -0.009427128
0.010899804 0.01126114 -0.014356891 -0.011112519 -0.009988412 0.011447078 -0.011722299 0.010408701
-0.012507791 0.008529373 -0.008231685 0.011005482 0.010963093 0.011997956 -0.010740313 -0.008902632
-0.0101746125 0.009262439 -0.010731338 -0.01253856 -0.00949032 -0.0116314115 0.008953696 0.01145829

net.3.bias f4 [128]
00000000: 9763 b8bd e7a9 b73d b424 bdbd 478c c6bd
00000010: 5bfe bbbd b17a b83d 72c4 bd3d 1c68 b93d
00000020: 1ced ae3d de24 b73d ec01 bb3d 558c b5bd
00000030: 2e8b b13d 8d4c b0bd eb6a babd a39f b1bd
00000040: a9cb af3d 85fa b6bd f5cd bb3d 43a6 be3d
00000050: 90ad ae3d 9013 c63d e154 b0bd 0b61 b73d
00000060: f74e b93d b1c2 b0bd 244c b23d 11b8 bc3d
00000070: 9c63 ba3d 3d8d bbbd 50b1 bbbd 6ced c0bd
00000080: b3a0 c3bd 3181 b7bd 0ed3 b0bd c07c c53d
00000090: dc62 b6bd e805 bfbd 3f25 cd3d 5d9a ba3d
000000a0: 18c2 b4bd 208b b73d 93b1 adbd 861d af3d
000000b0: a105 be3d 000d b23d 6909 c33d 9dd8 bc3d
000000c0: 2409 b73d accc b73d a795 bd3d a2b8 ae3d
000000d0: a614 bbbd 561a a43d b022 aabd 297c bd3d
000000e0: 9322 aabd b950 a3bd 59cb b63d 2071 afbd
000000f0: 4c26 b1bd 637e bfbd 1ea0 bcbd 905e acbd
00000100: c06f afbd e6a9 bebd f211 b2bd 8f51 b8bd
00000110: 1906 c5bd cd64 ab3d fa94 b1bd 306c acbd
00000120: a770 b63d d25c c03d 96b8 a63d e32b b13d
00000130: b6b4 b4bd 3c5d bd3d b61e c4bd c8dd c3bd
00000140: f15a b13d e51a c1bd 8a3d ae3d 852b b23d
00000150: e74b c53d b768 babd 8880 b93d 8c2d b7bd
00000160: 51eb bb3d 9f69 b83d 5a46 babd 1987 b0bd
00000170: dfd7 b1bd ed0e b53d 68de cbbd 176e b23d
00000180: 32f2 b1bd f169 aebd 5702 cb3d eb4f adbd
00000190: dd23 af3d 4b88 b63d b7fa b4bd 07ad bb3d
000001a0: d2a3 bbbd e8f5 b9bd 9a5d adbd d49c aebd
000001b0: e4b5 bb3d b7c3 bb3d 1926 cbbd 4ad4 b33d
000001c0: 8cbc bdbd a2f3 ba3d 218b acbd 9cd9 c43d
000001d0: f40c b7bd b22a bf3d 3dca c3bd 141f c5bd
000001e0: 77a8 be3d 6e03 cc3d 094b bd3d 6ac0 adbd
000001f0: ed90 bebd 05a9 c63d 5e0f b5bd 402b abbd
-0.0900337 0.08967953 -0.09235516 -0.096947245 -0.09179374 0.090077765 0.092659846 0.090530604
0.08541319 0.08942579 0.09131226 -0.08864657 0.086691245 -0.08608351 -0.09102424 -0.086730264
0.08583767 -0.089345016 0.091701426 0.09309056 0.08529198 0.096717 -0.08609939 0.08954056
0.090482645 -0.086308844 0.08705929 0.092147954 0.0910103 -0.091577984 -0.09164679 -0.09420285
-0.09552135 -0.08960188 -0.086340055 0.09642935 -0.08905575 -0.093272984 0.1001687 0.09111474
-0.08826083 0.08962083 -0.08481135 0.08550553 0.092784174 0.08693886 0.09523279 0.09221003
0.0893729 0.08974585 0.092570595 0.0853131 -0.09134798 0.08012836 -0.08307397 0.09252197
-0.08307376 -0.07974381 0.08925504 -0.08566499 -0.08649883 -0.09350278 -0.092102274 -0.08416474
-0.085662365 -0.09309749 -0.08694829 -0.08999931 -0.09620304 0.083688356 -0.08670993 -0.08419073
0.089082055 0.09392704 0.08140676 0.08650949 -0.088235304 0.09246299 -0.0957617 -0.09563786
0.08659924 -0.09428958 0.085078314 0.08699707 0.09633618 -0.09102004 0.090577185 -0.08944234
0.091757424 0.090045206 -0.0909545 -0.08619518 -0.08683752 0.088407375 -0.0995453 0.08712404
-0.08688773 -0.085163005 0.09912556 -0.08462509 0.08551762 0.089127146 -0.088368826 0.09163862
-0.091621056 -0.09080106 -0.08465119 -0.08526006 0.09165552 0.09168189 -0.09919376 0.08780725
-0.09264478 0.091285005 -0.08424974 0.09611818 -0.089380175 0.09334315 -0.09560058 -0.09625068
0.09309476 0.09961592 0.092428274 -0.08483966 -0.09304986 0.09700207 -0.08840822 -0.08357859

net.6.weight f4 [7, 128]
00000000: 609e 35be 4c7e 373e 84de 3bbe 8f36 45be
00000010: 1364 3abe a972 353e 39e7 3c3e f32c 383e
00000020: 6ccc 2e3e 9626 343e 93d3 373e 39ba 34be
00000030: df7c 313e f8a6 2fbe 3965 37be e2f6 30be
00000040: 1072 2e3e 6998 35be 595c 393e f38b 3b3e
00000050: 3222 2c3e cd07 443e 47bd 2bbe 35e9 343e
00000060: d490 373e a7f5 2cbe 440f 303e 5469 3a3e
00000070: bbeb 363e 7bee 3abe cfe4 36be fe97 3ebe
00000080: e758 41be a123 35be 63c0 2ebe 9761 413e
00000090: bcf7 32be a051 3dbe 66c3 4a3e d9ae 363e
000000a0: 64e3 31be 543a 363e 0210 2bbe 1baa 2a3e
000000b0: 0114 3c3e 2f94 2d3e 9d59 403e b68b 3a3e
000000c0: dcc7 373e e00e 363e 93f8 393e 91f9 2d3e
000000d0: 1753 39be 386f 233e d136 28be 3f25 3d3e
000000e0: 029d 26be a392 20be f176 333e 73d7 2cbe
000000f0: 8074 2fbe f871 3ebe 4fa3 39be 757f 29be
00000100: a14e 2bbe 500e 3dbe 1a8f 2fbe d6d1 34be
00000110: a943 41be 6481 273e 9062 30be 892b 2bbe
00000120: 709a 353e a35d 3f3e b283 243e b7bf 313e
00000130: 4fc7 33be 969b 3c3e 2718 44be df92 41be
00000140: 1e8c 303e e93e 3fbe 7a06 293e a574 2d3e
00000150: c71f 423e 7eef 36be 8303 363e 3ff3 36be
00000160: 62a7 393e fb27 373e 69b0 38be c055 2dbe
00000170: a58f 2ebe 8f3b 333e 0985 4cbe 8fe6 2e3e
00000180: 14b4 2ebe 8834 2dbe 8dbb 483e ab92 29be
00000190: 391d 2d3e d696 343e bb9c 32be 8cf4 393e
000001a0: 8336 37be 5ef4 36be e779 2bbe 274a 2cbe
000001b0: 423e 3a3e a571 3b3e 686f 48be 03cc 303e
000001c0: df0a 3bbe e21b 3a3e c994 2abe d3f3 423e
000001d0: d8e9 34be 2fc0 3b3e a3c9 44be 14e3 42be
000001e0: 6250 3f3e 803e 493e 2f89 3b3e 9461 2bbe
000001f0: c4c2 3dbe e1d6 463e 4545 33be e976 2abe
00000200: cffb e93c 5b30 dfbc 4318 073d 5e99 0a3d
00000210: ba86 f03c df8c f6bc f726 04bd befb eabc
00000220: 9166 dfbc 87bf febc 1997 f6bc ce98 ea3c
00000230: a9d1 cdbc 9c80 da3c 0c57 eb3c 0c88 d13c
00000240: 89f5 d3bc ca19 ea3c 06e4 f6bc b0ef 01bd
00000250: b64f edbc da14 0abd 9e24 f03c 602a eebc
00000260: 65c2 e6bc 7206 e33c e86d efbc 8341 fcbc
00000270: 8b57 f8bc b5cf fb3c fc55 0c3d 5d4e f23c
00000280: 0bd4 fe3c 0c39 e03c 5ee5 d83c 1dec 0dbd
00000290: 045b f03c 4b96 043d a230 10bd f170 02bd
000002a0: 16da fb3c f80c e9bc 5cef d43c 2755 eebc
000002b0: 481a 00bd 5252 03bd d4f5 03bd 2cb3 f3bc
000002c0: 9d89 d3bc 6e46 e9bc 6bdd f0bc 81ab dcbc
000002d0: 7503 de3c 3cf1 c4bc af16 da3c 7a8d ecbc
000002e0: 890e d93c e9f1 bb3c e7c0 06bd b659 f23c
000002f0: d2b2 dc3c ae13 f23c 519e 033d 4e14 d63c
00000300: e68e 003d e8fc ec3c a38e f83c 4b6f f03c
00000310: be88 0e3d ca0c eebc c003 db3c a304 e23c
00000320: a36b d8bc 5984 00bd 5e88 f2bc 8383 d2bc
00000330: 78a2 fa3c cc3f e6bc 23e9 f23c af87 f63c
00000340: d413 f1bc 760e fb3c 3abd fabc 0bfb 04bd
00000350: 2be1 05bd 1676 023d 6996 efbc dbfe e13c
00000360: f94c 04bd c719 efbc 516b e73c e500 e53c
00000370: f4b4 e83c e9ca f8bc 90a8 fc3c 0019 efbc
00000380: 9a84 ed3c 70ba d63c 693a 15bd 6701 eb3c
00000390: 4a94 e8bc ae2d f2bc 5fa4 ed3c d09f 01bd
000003a0: 68a6 fc3c 58e4 ed3c 4bd1 e43c ce73 dd3c
000003b0: 5824 f7bc 69e7 eebc 438b 133d a749 ebbc
000003c0: 7a90 0b3d fce2 f7bc 6adb d13c f11e 01bd
000003d0: 18a9 da3c be05 01bd f2b1 003d a991 023d
000003e0: d5eb e1bc fd2f 02bd 4941 e1bc cc99 ee3c
000003f0: 487f e63c bc85 09bd e9b4 ea3c 7e78 e03c
-0.17736197 0.17919272 -0.18346602 -0.19259094 -0.18202238 0.1771952 0.1844758 0.17985897
0.17070168 0.17592844 0.17951803 -0.17649163 0.17332791 -0.17153537 -0.17909707 -0.17281678
0.17035699 -0.17733921 0.18101634 0.18315105 0.1680992 0.19143601 -0.16771422 0.17667086
0.17926341 -0.16890584 0.17193323 0.18204242 0.17863362 -0.18255036 -0.17860721 -0.18612668
-0.1888157 -0.17689373 -0.17065577 0.18884884 -0.17477316 -0.18488169 0.19801101 0.17840137
-0.17371899 0.17795688 -0.16705325 0.16666453 0.18367006 0.16951059 0.18784185 0.18217358
0.17947334 0.17779112 0.1816123 0.16989733 -0.18098103 0.15960395 -0.16427161 0.1847124
-0.16270831 -0.15680937 0.17525841 -0.16879062 -0.17134285 -0.18598163 -0.18128704 -0.16552527
-0.16729213 -0.18462491 -0.17144433 -0.17658171 -0.18873467 0.16357952 -0.17225099 -0.16715826
0.17734694 0.18688063 0.16065863 0.1735829 -0.17556499 0.18418726 -0.19149838 -0.18903683
0.1724095 -0.18676342 0.16506377 0.16939028 0.18957435 -0.17864797 0.17774777 -0.17866229
0.18130258 0.17886345 -0.18036045 -0.16927242 -0.17046984 0.17503189 -0.19972624 0.17080139
-0.17060882 -0.1691457 0.19602795 -0.16559856 0.16905679 0.17635664 -0.174426 0.18159693
-0.17891888 -0.17866656 -0.16745721 -0.16825162 0.18187812 0.1830507 -0.19573748 0.17265324
-0.18265866 0.18174699 -0.1665832 0.19038324 -0.1766733 0.18335031 -0.19217543 -0.19031936
0.18683007 0.19652748 0.1831405 -0.16736442 -0.18531328 0.19417907 -0.17506893 -0.16646923
0.028562455 -0.027244737 0.032982122 0.03383767 0.029361118 -0.03009647 -0.032263722 -0.028684493
-0.027270587 -0.031097187 -0.030101346 0.028637316 -0.025124388 0.026672654 0.02872803 0.025577568
-0.025873916 0.02857675 -0.030138027 -0.031722724 -0.028968673 -0.03371129 0.029314335 -0.02907294
-0.028168866 0.027713034 -0.029227212 -0.030792957 -0.030315181 0.03073869 0.03426169 0.029578382
0.03110697 0.027370952 0.026476558 -0.034649003 0.029340275 0.032369893 -0.03520263 -0.03184599
0.03074364 -0.028448567 0.025993042 -0.029093338 -0.031275064 -0.03206093 -0.03221686 -0.029748522
-0.025822455 -0.028475966 -0.029402455 -0.026937248 0.027101258 -0.02404081 0.026622145 -0.028876055
0.026496189 0.0229425 -0.03289881 0.029583793 0.026940737 0.0295504 0.032133404 0.026132729
0.03138628 0.028929189 0.030341452 0.029349944 0.034798376 -0.029058833 0.026735187 0.027590102
-0.026418513 -0.031376217 -0.02960604 -0.025697475 0.03059505 -0.028106593 0.029652184 0.030093996
-0.0294284 0.030646544 -0.030607808 -0.032465976 -0.03268544 0.031850897 -0.029246526 0.027587345
-0.03229997 -0.029187096 0.028249415 0.027954528 0.028406598 -0.030370193 0.030842096 -0.029186726
0.028993893 0.026211947 -0.036432657 0.028687192 -0.028391022 -0.029562797 0.029009042 -0.03164655
0.030841067 0.029039547 0.02793183 0.027032759 -0.030168697 -0.02916308 0.036021482 -0.028721644
0.03407333 -0.030259602 0.02561732 -0.03152365 0.026691958 -0.031499617 0.031419702 0.031877194
-0.027578274 -0.031784046 -0.02749695 0.02912607 0.028136864 -0.033574805 0.028650718 0.027401205

net.6.bias f4 [7]
00000000: 9c56 063f 728b b2bd 728b b2bd 728b b2bd
00000010: 728b b2bd 728b b2bd 728b b2bd
0.52475905 -0.08718003 -0.08718003 -0.08718003 -0.08718003 -0.08718003 -0.08718003
